src/evagent/evagent.onnx (onnx, 144069 bytes, 7 tensors)

obsNorm_scale f4 [16, 1]
000000 8e 26 42 3f c6 2b 4d 3f 06 c7 6b 3f 7e 06 62 3f
       0.7584008 0.8014492 0.9210056 0.88291156
000010 29 3a 6f 3f 10 ee 74 3f 76 ae 60 3f f0 88 24 3f
       0.9344812 0.95675755 0.87766206 0.6427145
000020 cb 49 4b 3f 1b b6 56 3f 9b 72 29 3f 26 30 4d 3f
       0.79409474 0.8387162 0.661905 0.80151594
000030 9f 07 3b 3f 9e 85 55 3f 59 e5 6f 3f fa 1c 4c 3f
       0.73058504 0.8340701 0.9370933 0.79731715

obsNorm_B f4 [16, 1]
000000 50 01 80 bd 54 43 ff bc 4e 6e 6e 3d cd b6 62 3d
       -0.0625025 -0.031160034 0.058210663 0.055350114
000010 22 cb 34 3d d8 c5 0b 3d 89 29 81 3d ca 04 7e bd
       0.044139035 0.034124225 0.0630675 -0.062016286
000020 b5 77 1e bc 65 98 c4 bc 77 8a 82 bd 35 61 7b bc
       -0.009672095 -0.023998449 -0.06374066 -0.015343
000030 5a b7 3e bd 2d ac 22 bd fc c6 c9 3d 49 59 89 bd
       -0.046561576 -0.03971498 0.098524064 -0.06706483

fc_1_MatMul_W f4 [16, 250]
000000 7b 07 39 3d 27 9f 9b 2f da d3 70 3c a7 5d 71 3c
       0.04517315 2.830742e-10 0.014698947 0.014731801
000010 6d 83 a8 3c 92 1f 04 be 4e 47 cf 3c 78 5f 91 3c
       0.020570481 -0.12902668 0.025302555 0.017745718
000020 cd d3 a8 3a 14 49 3e 3d 44 40 79 3c ba 11 13 3d
       0.0012880504 0.04645641 0.015213076 0.035905577
000030 2a 03 e2 bc f4 4d 64 3c 5f ac 41 bd 99 89 00 00
       -0.0275894 0.013934601 -0.047283527 4.9361e-41
000040 62 e3 be 3c 3b 28 b3 3c 48 97 3e bd 6f b9 9b bd
       0.023301784 0.02186977 -0.04653099 -0.07603728
000050 72 06 73 3a f1 95 06 3d 5e 36 7f bc 48 90 ac 30
       0.0009270675 0.03285784 -0.015576927 1.2555654e-09
000060 fb 19 00 3d e3 12 3f bc c6 8d b6 3c 2f e2 be bb
       0.031274777 -0.011662218 0.0222844 -0.005825303
000070 dd e8 47 bd 50 e5 7f 3c 09 38 ca 3a 44 89 00 00
       -0.04880606 0.015618637 0.0015428077 4.9242e-41
000080 62 2a 1e 2f 52 c1 20 bd b3 0e bf 3c d8 84 96 3c
       1.4385074e-10 -0.039246865 0.023322439 0.018373892
000090 36 4b 23 bd 72 1f a7 bd 1f ae 31 bd c5 4a 8c 3c
       -0.03986665 -0.081602946 -0.043378945 0.017125497
0000a0 ad c4 96 3c 85 77 8e 3c 76 77 20 bd 6b c1 7e 3c
       0.01840433 0.017390976 -0.039176427 0.015549044
0000b0 20 6a a9 3c 1c 91 9e 3c f1 4b 92 3d f6 51 81 2b
       0.020680487 0.019356303 0.07143391 9.18875e-13
0000c0 15 67 5a 32 df d1 02 bd 4a 99 00 00 d5 c5 e6 bd
       1.2712708e-08 -0.03193843 5.499e-41 -0.11268202
0000d0 3b 89 00 00 ed 2c 33 37 5d ae ab 3c ed 8d 1e 3c
       4.9229e-41 1.06796915e-05 0.020957166 0.009677392
0000e0 8a 37 d5 bc 37 4e 90 bd c8 b8 66 3c 2a 95 b4 bb
       -0.02602746 -0.07046168 0.014082141 -0.005510946
0000f0 d7 c4 f7 3c c8 f2 2a bd 95 e9 cd bd e8 96 82 bc
       0.030245228 -0.04173544 -0.10054318 -0.015941098
000100 c0 74 d2 bd 0f 89 00 bd a6 86 54 bc 16 7a c2 3b
       -0.102761745 -0.03138071 -0.012971556 0.005934964
000110 6e 9c 4b 89 18 d0 c7 bd da ed 82 bc df d1 04 bd
       -2.4508789e-33 -0.097564876 -0.015982557 -0.03242671
000120 b7 8d d1 3c f1 d1 46 bd 71 b9 ec ba 95 43 a9 3c
       0.02558027 -0.04854006 -0.0018060637 0.020662108
000130 24 c1 db 32 ad 3f 1d bd bf 59 96 3c 77 89 00 00
       2.5582786e-08 -0.038390804 0.018353341 4.9313e-41
000140 80 9c 41 bb cc c9 3d bc d2 b6 0b be e0 89 00 80
       -0.0029542744 -0.011583757 -0.13643959 -4.946e-41
000150 71 a1 8c 3d ab fd d9 bd 0c 16 56 3c 1a 97 e6 2f
       0.0686673 -0.106440865 0.01306678 4.194412e-10
000160 3c 3c 19 bd aa df df 3c ca ea 62 bc ee d4 6e ba
       -0.03741096 0.027328331 -0.013849923 -0.00091107085
000170 98 63 ee 24 1c 22 79 bc 64 e4 f7 bc b8 de c3 3d
       1.03384765e-16 -0.015205886 -0.030260272 0.095639646
000180 8a 05 ab 3c ef ff 6f 3c 07 f5 94 9f 9e 66 4a bd
       0.020876665 0.014648422 -6.30858e-20 -0.04941427
000190 b5 8e 1e 3c b2 cc 99 25 eb 83 47 bd 6d 28 b2 3a
       0.009677579 2.6679976e-16 -0.04870979 0.001359237
0001a0 7c 95 17 bd 49 07 ae 3c eb 94 42 3d b1 80 85 bc
       -0.037007794 0.021243708 0.0475053 -0.016296716
0001b0 4e 82 97 3c 14 84 b5 bc 7a bc 28 bd e6 a2 62 bd
       0.018494751 -0.022157706 -0.04119537 -0.055331133
0001c0 51 69 28 bd 56 0a 20 3d 40 0f 12 be ad 4c 05 bd
       -0.041116063 0.039072357 -0.1426363 -0.032543827
0001d0 eb 27 92 3c 54 d0 a8 3d 83 99 12 be 65 f0 8f bc
       0.0178413 0.082428604 -0.14316373 -0.017570684
0001e0 77 66 b6 2b 5c a9 2a bc 59 2f 75 bc e8 df 81 bd
       1.2960317e-12 -0.010416355 -0.014964902 -0.06341535
0001f0 b9 19 ac 3c e5 b6 49 3c 1f 92 7e 3d 08 89 00 00
       0.02100836 0.012311672 0.06215107 4.9158e-41
000200 d2 07 df 3a 2e 01 85 bc 64 f8 46 bd a1 89 00 80
       0.001701588 -0.016235914 -0.048576728 -4.9372e-41
000210 6f cb 41 bd 5c 3c 96 3c 21 db 67 bc 67 47 0c 2d
       -0.04731315 0.018339328 -0.0141513655 7.973933e-12
000220 aa 6b 5a 3d 14 a2 c9 3b dd b6 04 02 89 34 00 80
       0.053325333 0.0061533544 9.750308e-38 -1.8846e-41
000230 e1 b6 ac 3c d2 89 00 00 08 97 b0 bc c2 04 1a bd
       0.021083297 4.944e-41 -0.021556392 -0.037602194
000240 cb 91 84 3c f2 a9 12 bd 30 d3 e0 bd 57 6d 98 3c
       0.0161828 -0.035806604 -0.10977781 0.018606825
000250 aa c6 bb 85 6f 77 17 bd c0 60 43 bd 5e 94 91 3d
       -1.7658373e-35 -0.036979135 -0.04769969 0.07108377
000260 82 33 1b bd bc 2f 66 bd e7 89 00 80 1a 36 15 30
       -0.03789092 -0.056197867 -4.947e-41 5.4282767e-10
000270 5b 9f 4f 2f b5 3c b4 3c 29 cb a6 bd de 89 00 00
       1.8883155e-10 0.022001604 -0.081442185 4.9457e-41
000280 29 ff 04 bd f2 2a aa bc f9 d3 bc bd 9f 70 d1 bd
       -0.032469902 -0.020772431 -0.09220118 -0.10226559
000290 8a 23 eb a1 4b 11 c0 bd 76 b6 6e 3c a8 9a 1b bd
       -1.5933627e-18 -0.09378298 0.014569869 -0.03798929
0002a0 c2 2c ef 3b 59 5c 6a 3c ed fa 39 bd 3c 5a 56 3a
       0.0072990367 0.014304244 -0.045405317 0.0008176898
0002b0 dd e9 87 bd 9d 9b 89 3c 0e 89 00 80 04 b9 d7 3c
       -0.06636403 0.016797835 -4.9166e-41 0.02633334
0002c0 e5 8e a7 bc 57 35 2a 3c ca 6e 27 bd 9b 74 ab bd
       -0.02045388 0.010388694 -0.04087714 -0.0837185
0002d0 63 f8 7b 34 fa f3 2f bd 5b 1a a2 3c b9 e4 3f bd
       2.3466559e-07 -0.042957284 0.019787958 -0.046848986
0002e0 bc 39 a4 37 a2 20 00 bd 76 a3 fc bc c6 e0 ad 3c
       1.9577208e-05 -0.03128112 -0.030839663 0.021225344
0002f0 2d 1e d5 bb 9f c1 bf 3c 21 89 00 80 76 42 f0 8a
       -0.0065038414 0.023407755 -4.9193e-41 -2.3136159e-32
000300 83 0e 29 3c dd 6d d7 2e 97 94 11 be b2 0c db 3c
       0.010318401 9.796584e-11 -0.14216839 0.026739452
000310 63 82 06 be ef 9e 43 bd 54 5c 76 3b 3d 93 5e 86
       -0.13135676 -0.047758993 0.0037591653 -4.1861733e-35
000320 a9 e2 e0 3c 1d e4 a8 3c 40 4d 00 bc 03 03 9d ad
       0.02745183 0.020616585 -0.007830918 -1.7850171e-11
000330 e5 1b 0b 3d c6 03 35 96 80 dd 92 3c 70 6e 05 a7
       0.03396215 -1.4622254e-25 0.017927885 -1.8517326e-15
000340 15 c7 2e bd 7d f9 0d bd 27 6b 8a bd f4 f3 74 3c
       -0.04267033 -0.03466176 -0.06758719 0.014950741
000350 bb fc 21 bd 48 0e 23 bd 38 00 f3 3c c0 81 2c bd
       -0.039547663 -0.03980854 0.02966319 -0.042115927
000360 dc f5 e1 bd 1d 19 97 bd 65 5e 37 bc 2d 0b 31 3d
       -0.11033222 -0.07377837 -0.011191939 0.04322355
000370 e2 c1 ae 3c 64 33 1d bd 9f 87 45 bd a8 fe a8 3c
       0.021332685 -0.038379088 -0.04822504 0.020629242
000380 56 d8 4c bd e5 94 79 3c 6d 91 bd 3c 34 89 62 bd
       -0.050011 0.015233253 0.023140633 -0.05530663
000390 7c 16 a4 3c e2 15 75 3c fc 89 00 80 06 fc 41 bd
       0.020030253 0.014958831 -4.95e-41 -0.04735949
0003a0 c8 31 81 bd 38 72 03 be 92 52 67 bd 09 da 45 bd
       -0.06308323 -0.1283654 -0.05647523 -0.048303638
0003b0 be 05 65 3c 7e a3 4d bd 20 bf ce aa 34 b7 21 3a
       0.01397842 -0.050204746 -3.672557e-13 0.0006168962
0003c0 33 cd a0 bd 60 3e 11 3d c5 ff cb 3c b9 a9 aa 3d
       -0.07851639 0.035459876 0.024902234 0.08333153
0003d0 b4 b2 61 3c 49 70 5a bd 35 37 25 3c ec 72 c9 b1
       0.013775516 -0.05332974 0.010083963 -5.862935e-09
0003e0 20 8d 98 3c 55 ae ab bd 87 49 b4 3d 6c 38 08 31
       0.018621981 -0.083828606 0.08803087 1.9822677e-09
0003f0 ce 7a 96 3c 8d c7 a0 3c 6b 89 ce 3c ef 61 0f 3d
       0.018369105 0.019626403 0.02521201 0.035005506

fc_1_Add_B f4 [250]
000000 78 c8 06 3d a7 75 11 b2 4e 7e 07 3d c7 19 67 3d
       0.032906026 -8.466862e-09 0.033079438 0.056421068
000010 69 09 8e 3d 93 8e e9 3c 67 58 80 3c 0b e2 97 3d
       0.069353886 0.028510367 0.015667154 0.07416161
000020 98 fe b1 3b 40 38 36 3d 00 02 83 3c 49 16 e7 3a
       0.0054319613 0.044487238 0.015992165 0.0017630543
000030 45 9c 32 3d 04 7f 8b 3d 9e 58 c7 3c 6e 89 00 00
       0.04360606 0.06811336 0.024334248 4.93e-41
000040 97 8a 91 3d 90 d7 24 3d 04 a4 1d 3c 20 19 20 3b
       0.07106512 0.04024464 0.009621624 0.0024429038
000050 0e 79 14 39 59 28 63 3d a9 6f c5 3b cc 0c 40 b4
       0.00014159476 0.0554584 0.006025274 -1.7886049e-07
000060 33 ee 89 3d 06 cd 6d 3d 43 47 8e 3d e9 8b d8 3b
       0.06734886 0.058056854 0.06947186 0.0066084755
000070 da 13 c2 3b 2b cf 4a 3d a4 37 f8 ba d0 a2 46 11
       0.0059227766 0.049513977 -0.0018937481 1.5669616e-28
000080 82 cc 9e 2f d9 75 f3 3c fb 51 92 3d 97 9f c9 3c
       2.8885344e-10 0.02971928 0.07144543 0.024612231
000090 bc 2c d6 3c 80 b1 3e bc 02 20 dc 3c a3 06 99 3d
       0.026144378 -0.011638999 0.026870731 0.07471969
0000a0 c2 a0 a6 3d a9 be 5c 3d c2 67 e5 bb 5a d6 55 3d
       0.08136131 0.053892765 -0.0070008943 0.052206375
0000b0 2d 7f e6 3c 63 ba 88 3d 05 01 ad 3c 66 8a 95 b1
       0.028136814 0.066761754 0.02111865 -4.352205e-09
0000c0 e3 20 eb b5 e9 e2 00 bc ed 8a 00 80 69 d2 9f bb
       -1.7518436e-06 -0.0078666 -4.9837e-41 -0.0048773778
0000d0 ff 72 03 00 5d 40 e8 b8 72 6d 96 3d 7b 65 8e 3d
       3.1676e-40 -0.00011074611 0.07345094 0.069529496
0000e0 bb 59 6a 3c 06 be 27 3d 0b 6d 05 3d eb 05 09 bc
       0.01430362 0.040952705 0.032574695 -0.008363227
0000f0 97 b9 88 3c 8e 5b f0 3c 63 5c 27 3d 13 24 d3 3c
       0.016690059 0.029340532 0.04085959 0.025774037
000100 50 e3 02 bb f9 d6 61 3d 9c 63 88 3c df 10 96 3d
       -0.0019971915 0.055136655 0.01664906 0.07327437
000110 56 eb 5e 19 40 88 49 3b 21 d1 51 3c ef 49 22 3d
       1.1524657e-23 0.0030751377 0.012806208 0.03962129
000120 66 b8 08 3d c5 9b ee 3a 5e 48 cd 3a 15 8d 99 3d
       0.03337898 0.0018204382 0.0015661826 0.074976124
000130 99 86 b2 b2 f4 e3 25 3d 16 4b ca 3c bc 89 00 80
       -2.0783135e-08 0.040500596 0.024694007 -4.941e-41
000140 3a 29 78 3d 58 5c b9 3c 94 d0 2a 3d 76 89 00 00
       0.06058619 0.02262704 0.04170282 4.9312e-41
000150 61 b0 86 3c 66 85 a4 3c 49 78 8e 3d a7 55 2d 2d
       0.016441526 0.02008314 0.06956536 9.85293e-12
000160 55 e0 17 3d 66 7d 20 3d 24 ae 0e 3d 0b ca 66 3d
       0.037079174 0.03918209 0.034834042 0.056345027
000170 38 d9 0b a5 ad 59 9b bc d9 ac 12 3d 70 d6 d5 3c
       -1.2129925e-16 -0.01896366 0.03580937 0.026103228
000180 aa 85 36 3c 95 59 4e 3d 90 da bb 2a 16 f2 1a 3d
       0.011140266 0.0503784 3.336953e-13 0.037828527
000190 02 81 cf 3c d4 78 a5 2d a8 46 4c 3c 19 24 99 3d
       0.02533007 1.8811987e-11 0.012468018 0.07477588
0001a0 3d 39 38 3d c6 b6 11 3d 49 30 cd 3c 42 3d a7 3c
       0.04497646 0.035574697 0.025047438 0.020414952
0001b0 99 a5 d5 3c f4 0f f5 3c 9b c7 a6 3c d9 ae 25 3c
       0.02607994 0.029914834 0.020358851 0.010112488
0001c0 7a 9c b6 bb f9 7d 7f 3c 8e 2b 9e 3c 1c 05 5a 3d
       -0.0055728527 0.015593999 0.019307878 0.05322753
0001d0 6a f2 7d 3d 3e 86 bc 3c 2d fc 1b 3c e6 8a 57 3c
       0.061998762 0.02301323 0.009520573 0.013155675
0001e0 d1 d8 a3 b3 e0 1d 60 3c b1 18 9d 3c f2 5d 9e 3c
       -7.629718e-08 0.013678998 0.019176813 0.019331906
0001f0 d8 48 a0 3d 46 05 92 3d 97 77 bb 3c 49 a7 00 80
       0.07826394 0.07129912 0.022884173 -6.001e-41
000200 85 98 74 3b 85 b3 0a 3d 71 1f 63 ba 06 eb 87 81
       0.0037322354 0.03386261 -0.0008664048 -4.992841e-38
000210 c5 3c 1d 3c c4 b0 a9 3d c9 d6 9f 3c 46 11 69 b2
       0.009597008 0.082856685 0.019511597 -1.35663125e-08
000220 2f 64 23 3d 53 e0 65 3d 2a 36 ca 8c 2c 28 be 1d
       0.039890464 0.056122135 -3.1155627e-31 5.033412e-21
000230 4c b0 84 3d f8 88 00 80 68 7e f7 3b d6 b1 d9 3d
       0.064789385 -4.9135e-41 0.0075529106 0.10629623
000240 84 15 9d 3d bc 3e af 3c e3 02 5b 3c fd 1d cb 3c
       0.076701194 0.021392219 0.0133673875 0.024794573
000250 cd 15 60 86 a6 97 d7 3d ca 6b 65 3c e0 10 b2 3c
       -4.2145734e-35 0.105269715 0.01400275 0.021736562
000260 a7 a5 e7 3c 98 ba 14 3d 0b 89 00 80 1e 4a 62 b6
       0.028277231 0.036310762 -4.9162e-41 -3.3719766e-06
000270 d9 71 46 b5 cf b4 be 3c 27 ce 69 3c 73 89 00 00
       -7.392642e-07 0.023279576 0.014270342 4.9307e-41
000280 bf 8f 60 3d 0f 34 89 3d 18 05 29 3c 1b 43 d9 3c
       0.054824587 0.066993825 0.010316156 0.026521256
000290 c4 f3 c5 a4 0d d8 cd 3c 89 15 91 3d 89 b8 d4 3c
       -8.5848086e-17 0.025127435 0.07084186 0.0259669
0002a0 b6 98 ec 3b 31 5a a7 3d bd 48 0a 3d 08 8f a4 3c
       0.007220353 0.081714995 0.033760775 0.020087734
0002b0 cc a9 aa 3c 24 1c 12 3d eb c9 00 80 30 55 72 3d
       0.020832919 0.03567137 -7.2435e-41 0.059163272
0002c0 86 96 32 3d 29 42 1f 3d 7e 7a 6a bc b6 59 8f 3c
       0.04360058 0.038881455 -0.014311431 0.017498832
0002d0 47 65 38 35 bf ec 6d bc ec 68 8e 3c 14 5c 91 3c
       6.869272e-07 -0.014521777 0.017384015 0.017744102
0002e0 69 8c 2c b9 2f 85 f1 3c b2 37 8b 3c cc 73 93 3d
       -0.00016455505 0.029482452 0.016994331 0.07199821
0002f0 29 e1 50 3c b1 41 98 3d 2d 89 00 00 22 ef e7 22
       0.012748995 0.07434405 4.921e-41 6.2865867e-18
000300 c9 13 4a 3d ff 21 c4 b3 c8 96 10 3d 54 29 90 3d
       0.049335275 -9.133145e-08 0.035300046 0.07039133
000310 63 ce 18 3d 30 a1 9d 3c ea 69 6e 3c 23 6e 9a 86
       0.0373062 0.0192419 0.014551619 -5.8090193e-35
000320 e6 72 48 3d ac bb 8a 3d dc 1c 72 3d 4e 19 80 ae
       0.0489377 0.06774077 0.059109554 -5.825261e-11
000330 2a 99 c1 3c 93 44 32 98 01 b6 8f 3d 95 6f 66 b1
       0.023632605 -2.3040582e-24 0.07017136 -3.3532832e-09
000340 b0 ed 73 bc e6 00 35 3d 2a 47 58 3c 8a 48 a8 3d
       -0.014888212 0.04419031 0.013200561 0.08216961
000350 8d d2 82 3c bc f2 69 bc 3e d0 d9 3c a0 82 dc 3c
       0.015969539 -0.014279064 0.026588555 0.026917756
000360 9d ef 0d 3d ca 3d aa 3c e1 60 0b 3d e9 2f f0 3c
       0.03465234 0.020781416 0.034027938 0.02931972
000370 14 aa 01 3c dc 88 2f 3d 0e 5b d6 3c 6f 14 de 3c
       0.007914085 0.04285513 0.026166465 0.027109353
000380 e6 d2 15 3d 26 a0 4d 3c f5 41 99 3d 5c db 53 bc
       0.03657808 0.012550389 0.074832834 -0.012930717
000390 fb 5a 80 3d cd 98 53 3d e0 88 00 00 28 a4 ee 3c
       0.06267353 0.051659394 4.9101e-41 0.02913101
0003a0 84 f9 81 bc 3f 12 69 39 e8 bc 7a 3c 2d d6 fc 3c
       -0.015866049 0.00022227409 0.015303828 0.030863846
0003b0 77 ff 99 3d a1 51 6e bc 82 21 95 2c 20 9d 81 b9
       0.07519429 -0.014545829 4.238555e-12 -0.00024721865
0003c0 98 73 e9 3c b9 70 46 3d cd 24 e1 3c 29 d3 c7 3c
       0.028497502 0.048447344 0.027483368 0.024392681
0003d0 33 12 99 3d 46 2e 41 bc 36 84 92 3d 7c 58 11 30
       0.07474174 -0.011790818 0.071541235 5.2876437e-10
0003e0 5c f3 c9 3c 6e 3d b5 bc
       0.024652176 -0.022124019

fc_2_MatMul_W f4 [250, 125]
000000 42 e1 b2 bc 85 89 00 80 7d d5 3e bc a1 71 2d bc
       -0.021835927 -4.9333e-41 -0.011647579 -0.010586173
000010 76 53 de 3c 77 c8 0f bb 6c 38 4e 3d 62 4d 44 bd
       0.027139407 -0.0021939555 0.050346777 -0.04792536
000020 15 1c 88 bc ea a6 db bc 69 18 18 b1 b8 b2 07 bc
       -0.016614953 -0.02681299 -2.2132787e-09 -0.008282356
000030 d5 a8 86 3d 4f 3b 60 3c 4a 9b fe 3a 38 b4 61 bc
       0.06575171 0.013686015 0.0019424942 -0.013775878
000040 84 40 0e bd f5 20 71 bc c3 17 b1 bc 43 8e e2 3c
       -0.034729496 -0.01471733 -0.021617776 0.027655726
000050 35 81 57 bc 5c b3 57 bc 60 78 1c 3c b9 36 71 bd
       -0.013153364 -0.013165321 0.009550184 -0.05889008
000060 8c 8c d3 bb 6d 9f 08 3d f0 28 03 bd 08 d6 69 b0
       -0.0064559635 0.033355165 -0.032021463 -8.5069063e-10
000070 57 f6 a4 bc f2 dc d7 bc 86 43 c4 3c 50 de fd bc
       -0.020136995 -0.026350472 0.023957979 -0.030989796
000080 38 4d 76 bc 03 a6 1a b5 21 01 cc bc 35 01 d6 3c
       -0.015033059 -5.761105e-07 -0.024902882 0.026123622
000090 3c 6c 20 3c 9d 89 00 00 d0 89 00 00 24 80 41 bc
       0.00979143 4.9366e-41 4.9438e-41 -0.011810336
0000a0 ec cf 4b 3c 8a cd cf bc 64 89 00 80 70 87 46 bc
       0.012439709 -0.025366563 -4.9286e-41 -0.012117252
0000b0 60 ed ca 3c 32 fc 17 1d 80 c1 6c a5 97 c3 7c bc
       0.024771392 2.0115066e-21 -2.0535297e-16 -0.015427492
0000c0 df d6 a5 3c 58 7e 43 ba 90 de b8 3a f4 30 42 bc
       0.02024406 -0.00074574864 0.0014104415 -0.011852492
0000d0 04 55 93 21 45 39 38 3c 52 d1 e6 3b ef 56 e1 3c
       9.983611e-19 0.011244123 0.007043996 0.027507273
0000e0 af f3 3c ba 63 b4 ef bc a4 fa 2e bd fb 10 4b bc
       -0.00072079425 -0.02926082 -0.0427195 -0.012394185
0000f0 a9 11 28 3c 5b 1a a0 bc c7 95 10 3c 77 7c 48 bc
       0.010258117 -0.019543817 0.008824772 -0.012236706
000100 17 89 00 80 1c db f3 3c 44 23 d9 bc c9 88 11 3d
       -4.9179e-41 0.029767565 -0.026506074 0.03553084
000110 2e e3 8d 3d e7 ff 01 bc 22 4b d9 3c 25 96 c0 3c
       0.06928097 -0.007934547 0.026525084 0.023509094
000120 2e 3c 8e 3c 31 c4 95 bc 97 4f 86 8e c1 70 00 3d
       0.01736268 -0.018282028 -3.3110193e-30 0.03135753
000130 40 f5 9e bc 58 d6 55 bc 17 70 50 3c aa 79 2b b6
       -0.019404054 -0.013051592 0.012722037 -2.5551803e-06
000140 2f 54 cb bc fd 1b 1d 3c cd d2 25 bc 56 35 bd 29
       -0.024820415 0.009589192 -0.01012106 8.4025384e-14
000150 e3 0f dd bc 98 85 cb bc 6e 18 87 9b 12 3e bc bc
       -0.026985114 -0.024843976 -2.2349664e-22 -0.022978816
000160 71 46 ac 3c a4 a0 39 3d 9b 4d 97 bc 29 d5 cc bc
       0.021029683 0.045319214 -0.018469622 -0.025003986
000170 89 c2 8e 9c 82 d6 8b ab 15 b5 e5 bc 22 79 87 bc
       -9.447058e-22 -9.936082e-13 -0.028040448 -0.016537253
000180 f0 69 43 bc 34 e1 20 3c fc 80 97 3b be a3 37 bc
       -0.011927113 0.009819318 0.0046235304 -0.011208473
000190 33 a3 72 bc 8d bc 46 bd 0f 85 d7 3b 46 ca 5d 3d
       -0.014809418 -0.04851966 0.006577141 0.05414798
0001a0 ff 92 27 bc 51 2e 34 bc cd e7 93 bc b4 bd 21 3d
       -0.010227918 -0.010997371 -0.018054867 0.039487556
0001b0 cf 63 0f bd 6a 57 9d bc 96 39 67 3c d8 ba 94 3c
       -0.035007294 -0.019206721 0.014112851 0.0181555
0001c0 b2 35 14 b3 2e 4f 2c ac 36 df 40 3c 02 8a 00 00
       -3.450777e-08 -2.4486624e-12 0.011771968 4.9508e-41
0001d0 d0 fa f2 3c 0d 7d b4 bc 53 76 d6 bc eb 60 84 bc
       0.029660612 -0.022032285 -0.026179468 -0.016159495
0001e0 81 a6 45 bc 25 0f 38 bc c1 a2 25 bc bc 36 12 3c
       -0.012063623 -0.0112340795 -0.010109604 0.0089241825
0001f0 14 66 4d bc 54 4e dc 26 80 8c 00 80 fa 15 b7 1e
       -0.012536544 1.5286797e-15 -5.0402e-41 1.9384968e-20
000200 2f 30 80 9f 21 df 49 b0 bd 9d 2d 32 8e c9 2f b2
       -5.428982e-20 -7.344046e-10 1.0105791e-08 -1.0232169e-08
000210 44 83 88 32 49 cc 86 9e cc 32 a0 2d 53 65 dc 2b
       1.5892176e-08 -1.4272292e-20 1.8212452e-11 1.5660063e-12
000220 f2 8a 33 32 97 da 2a b2 e7 67 9b 8c 86 2b e6 17
       1.0450764e-08 -9.945004e-09 -2.3944065e-31 1.4874388e-24
000230 2c 3a f0 1e f4 2c 1f 9f bf 82 25 1e 06 39 06 30
       2.5435048e-20 -3.3706744e-20 8.762065e-21 4.882995e-10
000240 a2 ca a8 a0 d9 f0 34 9f 6e 7d 49 a2 ed 8f 78 2c
       -2.8594398e-19 -3.8315707e-20 -2.7306982e-18 3.5322815e-12
000250 da e0 91 32 ef 0b 2e 2d 78 8f 42 9e 55 4d 12 9f
       1.6982472e-08 9.893405e-12 -1.0299943e-20 -3.098067e-20
000260 2c 6e 0e 01 96 39 3a 31 7d 65 ca 31 d3 d1 cb 1e
       2.6160325e-38 2.7099296e-09 5.8905116e-09 2.1580242e-20
000270 31 f4 2e 1f 85 4d c2 30 f2 6e 1f ab 04 5a 21 1e
       3.7047924e-20 1.413739e-09 -5.6642115e-13 8.541884e-21
000280 7f 2f 52 9e 2d c0 31 32 a7 c4 00 80 dd 88 00 80
       -1.1127129e-20 1.0346452e-08 -7.0546e-41 -4.9097e-41
000290 34 f6 1e 32 f9 39 07 b4 68 08 38 1f f4 9a c7 2d
       9.2527905e-09 -1.2593945e-07 3.897047e-20 2.2692494e-11
0002a0 bc cd d0 9e 28 18 86 af d8 0b d3 0e d5 89 00 00
       -2.2107946e-20 -2.4391622e-10 5.202692e-30 4.9445e-41
0002b0 a9 3f 87 30 fe d0 44 1f 81 1e 9b 32 7e dd 62 9d
       9.840636e-10 4.167749e-20 1.8058246e-08 -3.002536e-21
0002c0 69 8a 40 2f 89 8a 00 80 af 30 3a b1 cc cb ab 1d
       1.7511471e-10 -4.9697e-41 -2.7094236e-09 4.5474044e-21
0002d0 67 e7 92 1e 44 c8 e6 28 cc fe 1e 9f 03 8b 92 9f
       1.5554057e-20 2.5621981e-14 -3.3668564e-20 -6.206338e-20
0002e0 14 26 c7 9e f0 7c 32 1c 14 d8 07 2c 03 6b 19 9e
       -2.1085693e-20 5.905674e-22 1.9304601e-12 -8.121882e-21
0002f0 df ac 28 2e a5 89 00 80 e6 2f bb ad 40 c5 19 1f
       3.8352318e-11 -4.9378e-41 -2.128071e-11 3.256217e-20
000300 ab 5c cd aa b5 27 1b b2 f3 cd ea 9e fc 67 b3 9d
       -3.6479617e-13 -9.031216e-09 -2.4860892e-20 -4.7488423e-21
000310 7d 95 d0 9e 32 8a b7 9e 5f bf 05 9f d5 ab 00 80
       -2.2084684e-20 -1.9433035e-20 -2.8322144e-20 -6.1642e-41
000320 69 fa e9 9e 70 59 c2 2b 53 e7 ca 9e f5 88 00 80
       -2.4773402e-20 1.3809353e-12 -2.1483255e-20 -4.9131e-41
000330 5a d4 00 00 17 b3 b6 29 dc 49 ba 9c 66 2d 0b 1e
       7.6177e-41 8.113491e-14 -1.232754e-21 7.367987e-21
000340 36 89 00 00 25 be 38 9f c1 7c 44 9f 0b 89 00 00
       4.9222e-41 -3.91208e-20 -4.160781e-20 4.9162e-41
000350 50 73 ab 31 23 64 6c 32 9e a6 46 30 53 14 5c 29
       4.9898645e-09 1.3759776e-08 7.226876e-10 4.886744e-14
000360 a4 ac 5f 31 9a b3 97 8e 72 1e 8e 2a a4 94 a6 1e
       3.2548906e-09 -3.7397324e-30 2.5245393e-13 1.763741e-20
000370 9b c1 a3 1e 08 a0 7b 32 86 3b c7 9c 8f 71 a8 9d
       1.733837e-20 1.464651e-08 -1.3184102e-21 -4.4586647e-21
000380 a6 4e bc 1e 84 a2 ab 1d 52 19 14 32 9b f7 55 1d
       1.9937802e-20 4.543136e-21 8.620491e-09 2.8318324e-21
000390 fd 2f e6 b1 ce 7b be 1e 64 4f d5 2c 2c 29 51 1e
       -6.6993366e-09 2.0168237e-20 6.0626382e-12 1.1072882e-20
0003a0 07 ba c1 32 5c 5a b8 9e 78 7a d4 1e a3 f4 a7 30
       2.2552753e-08 -1.951913e-20 2.2497025e-20 1.2220379e-09
0003b0 38 f4 8e 1e ae f1 79 ae 5b 8c 00 00 f9 15 5a ae
       1.5135841e-20 -5.68307e-11 5.035e-41 -4.9586977e-11
0003c0 b9 66 6a 98 16 4a 21 9e 9b b8 c0 9e 76 a1 29 1f
       -3.0295653e-24 -8.53859e-21 -2.0405142e-20 3.59207e-20
0003d0 83 a8 9c 29 ae 04 39 1f 0f df df 31 8d c5 10 9f
       6.957024e-14 3.9179145e-20 6.515513e-09 -3.0656596e-20
0003e0 32 dc ec 9d e7 7b fd 2c b7 93 f1 bc 35 89 00 00
       -6.2696356e-21 7.2044484e-12 -0.029489381 4.922e-41
0003f0 09 36 a6 bc 05 a8 87 bc c6 3b e7 3c cf 22 0f bd
       -0.020289438 -0.01655961 0.028226744 -0.034945305

fc_2_Add_B f4 [125]
000000 76 e4 ae 3c 6e 53 74 97 16 f4 cc 3b bd bf ae bb
       0.021349173 -7.8945955e-25 0.0062546832 -0.0053329156
000010 96 b2 9b 3c 04 a9 e2 3b 03 0b c5 3c 4b 6b ec 3b
       0.019006055 0.006917121 0.024053102 0.0072149388
000020 56 73 a2 3c d6 48 0c 3c 9d 51 9b b3 6f 06 dd 3a
       0.019830387 0.008562287 -7.232595e-08 0.0016862879
000030 a2 09 db 3c e5 4f 7d 3c 52 ec 17 3b ff fe 4f 3c
       0.026737992 0.015460943 0.002318163 0.012695073
000040 56 04 a9 3d 57 ea c1 3c 4b b2 24 3c 3d 10 da 3c
       0.0825278 0.023671312 0.010052274 0.026619071
000050 14 a7 e8 b7 9b f5 06 3c 4d 42 14 3c ad 9c 3d ba
       -2.7734357e-05 0.008237268 0.00904901 -0.00072331243
000060 99 05 30 3c ed 98 dc 3c 26 68 96 3d fc da 79 b7
       0.010743522 0.02692839 0.073440835 -1.4892543e-05
000070 2b 35 16 ba 0b e3 99 3b c2 2e df 3c e9 fe 9e 3d
       -0.00057299685 0.004696255 0.027243976 0.07763464
000080 be cb f5 3b 93 0e 14 b7 cd b0 21 3d 3d 28 d3 3c
       0.0075010946 -8.824881e-06 0.03947525 0.025776023
000090 26 a8 83 3b 5b 1a 5e 93 ea 1f 00 00 7c 68 fd ba
       0.0040178476 -2.8033334e-27 1.1449e-41 -0.0019333507
0000a0 ec 71 56 3b 13 76 7b 3d 6a 0b 4e b3 0b 12 1a 3c
       0.0032721711 0.0613919 -4.7973494e-08 0.009403716
0000b0 8a 45 88 3c 74 0d ca a3 ea a8 03 b1 83 6e db 3b
       0.016634721 -2.1906582e-17 -1.9159025e-09 0.0066965236
0000c0 df 47 81 3c 4f 68 2e bb 04 b7 0f 3b 47 14 18 3c
       0.015781341 -0.0026612466 0.0021929154 0.009282178
0000d0 59 e7 07 b0 27 00 54 3b e5 39 a5 3b 84 ac ea 3c
       -4.944148e-10 0.0032348724 0.005042302 0.028646715
0000e0 96 43 ff ba ea 34 89 3d 6b 4e c8 3d 2f af 0d 3c
       -0.0019475098 0.06699546 0.09780582 0.008647724
0000f0 75 12 56 3c 58 5d 61 3c 4b b9 e8 3b d2 78 3f 3b
       0.013065924 0.013755165 0.007102167 0.0029216302
000100 17 ad b0 a3 4c 59 da 3c fe 16 35 3d 2e ad e4 3c
       -1.9155265e-17 0.026653908 0.04421138 0.02791461
000110 98 c9 d1 3c cf 72 77 3c bb 80 db 3c 8b 18 da 3c
       0.025608823 0.015103056 0.026794782 0.026623031
000120 69 e4 97 3c 81 5d cb 3c c0 19 10 a7 55 ee 00 3d
       0.018541532 0.02482486 -1.9997974e-15 0.03147729
000130 a3 e5 26 3c fc 95 2d 3c 76 69 4a 3c a4 ae 88 b7
       0.010186586 0.010594841 0.012354245 -1.6293787e-05
000140 5d 75 7e 3c b9 86 44 3c 13 c3 1f 3b 55 94 51 2b
       0.015530911 0.011995011 0.0024377748 7.445757e-13
000150 4b e7 44 3d 2c f9 47 3d 0e 30 17 ad a8 2b 73 3b
       0.04807214 0.048821613 -8.5940265e-12 0.0037104879
000160 ff 14 2a bb 76 48 d8 3c 22 ed 9e 3c 55 70 e2 3b
       -0.0025952456 0.02640174 0.019400183 0.0069103637
000170 b4 8f e0 a7 09 b6 a6 b6 36 32 66 3d a7 ba cb 3c
       -6.2328293e-15 -4.968377e-06 0.05620023 0.024869276
000180 a4 52 dd 3b de 9b d2 3b df d3 14 3b a8 02 b3 3b
       0.0067542363 0.006427272 0.0022709293 0.005462963
000190 03 42 39 3d 27 7e c2 39 07 93 ca 3b 6f 91 c4 3c
       0.04522897 0.00037096554 0.006182078 0.02399513
0001a0 c6 37 8a ba 84 4a bb 3b 3a 5c e8 3c 83 7b c7 3c
       -0.0010545186 0.00571567 0.02836429 0.024350887
0001b0 a1 49 b1 3d ad d2 11 3d 38 ca f7 3b b5 43 87 3c
       0.08656622 0.035601307 0.007561948 0.016511777
0001c0 36 0b 95 b7 0f 74 9a b4 0c 6d d2 3b c8 c7 0a a6
       -1.7767405e-05 -2.876918e-07 0.006421691 -4.814912e-16
0001d0 42 70 cd 3c 20 85 3a 3d 42 fb 59 3d 2f bb 84 3c
       0.025077943 0.045537114 0.053218134 0.016202537
0001e0 c3 e2 18 3c 93 14 d5 3b 8a 9d 20 bb 5b 3f 3f 3c
       0.009331408 0.006502697 -0.0024507963 0.01167282
0001f0 17 b1 0e 3c
       0.008709214

fc_3_MatMul_W f4 [125, 1]
000000 45 a3 7d be d7 11 88 b8 f0 5d 0a be 0f 24 fb bd
       -0.24769314 -6.488308e-05 -0.13512397 -0.12262737
000010 c4 84 dc 3d 4b 1a 8e be 3a e7 2b 3e 85 bb 97 be
       0.107675105 -0.27754435 0.16787425 -0.29635254
000020 86 e9 3a be 5b de 4a be 55 b4 c1 3a fe b7 88 be
       -0.18253145 -0.19811384 0.0014778475 -0.26702875
000030 87 e1 65 3e 34 3d a0 3c c5 af 91 3b f3 61 19 be
       0.22449313 0.019560434 0.004446002 -0.14978771
000040 fe 59 93 be 94 0c 79 be 4e 17 4d be b8 ee da 3d
       -0.28779596 -0.24321204 -0.20028421 0.10690063
000050 0c f6 0b be d6 53 1b be 35 c1 67 be e6 b0 93 be
       -0.13668078 -0.151687 -0.22632296 -0.288459
000060 7d 6e 45 be ba 60 d0 3d ad 4c 84 be 36 ae 65 39
       -0.19280429 0.10174699 -0.2583975 0.0002190404
000070 9c fc 4c be 74 c3 8b be 32 ef 58 3d e3 bd 8a be
       -0.20018238 -0.27297556 0.05296249 -0.27097997
000080 9c d6 64 be 1e 92 01 37 28 f4 4b be 0e b2 7f 3d
       -0.22347492 7.72302e-06 -0.19917357 0.062425666
000090 65 5d a1 3d 81 66 ef b9 a7 19 c2 11 86 b5 80 be
       0.07879142 -0.00045662004 3.0623613e-28 -0.2513849
0000a0 d4 1e 07 3e 10 86 87 be 0a e4 32 34 a7 49 1b be
       0.13195354 -0.2646947 1.6660502e-07 -0.15164815
0000b0 e2 3c ba 3d f4 d0 16 39 95 09 de 3a 2d ba 68 be
       0.09093644 0.00014382956 0.0016940112 -0.2272727
0000c0 c9 64 16 3e bb 74 85 3b 6f 37 6c 3c 7b 89 7d be
       0.14686884 0.0040727532 0.014417513 -0.24759476
0000d0 de 04 cd 3a 7b ae a6 3d ee e9 c7 3c f1 1f 72 3d
       0.0015641709 0.08138748 0.024403539 0.059112493
0000e0 db 6c d9 3c 84 ff ac be b5 c6 ce be 28 24 16 be
       0.026541164 -0.33788693 -0.40385976 -0.1466223
0000f0 4c c7 c1 3c eb c4 69 be d1 01 05 3d a0 80 41 be
       0.023654602 -0.22829024 0.032472435 -0.18896723
000100 64 5c 36 38 28 0b 0c 3e 67 96 5d be 2c 8a e2 3d
       4.3478227e-05 0.13676131 -0.21639405 0.110615104
000110 e8 48 65 3e 04 aa 48 be de fd 6e 3d 15 85 56 3d
       0.22391093 -0.19596106 0.058347575 0.05237301
000120 07 d4 3b 3d 24 e4 2d be 09 90 a8 ba 1f 2f 9d 3d
       0.045856502 -0.1698156 -0.0012860309 0.07675003
000130 66 dc 48 be 57 d0 1c be 12 ad 91 3c 01 a1 88 bb
       -0.19615325 -0.1531385 0.017782722 -0.004169584
000140 63 bc 68 be 30 43 c6 3c ba 98 e8 bd 8b 28 d8 ac
       -0.22728114 0.02420196 -0.11357255 -6.1435904e-12
000150 79 f6 58 be be 94 8c be d2 f6 0c bb c4 55 7b be
       -0.21187772 -0.2745723 -0.002150942 -0.24544436
000160 ca b2 8a be 30 24 78 3e 50 b6 66 be e3 0d 66 be
       -0.2708953 0.24232554 -0.22530484 -0.22466235
000170 6b 8c ea 39 c4 02 b2 3b 60 a1 ac be 27 50 2d be
       0.00044736578 0.0054324586 -0.3371687 -0.16925107
000180 09 31 93 be 91 68 2d 3d 38 84 8a 3c e9 57 02 be
       -0.28748348 0.04233605 0.01690875 -0.12728848
000190 b3 e0 85 be 77 7e 82 be d7 b4 a9 3c b8 6e 56 3e
       -0.26147994 -0.2548711 0.020716114 0.20940673
0001a0 17 96 e7 bd 88 a8 2d be 08 ce 44 be b1 c0 7f 3e
       -0.11307924 -0.16958821 -0.1921922 0.2497585
0001b0 f5 65 94 be 0b bc 3e be 86 ba 6e be ba 5e 6d 3d
       -0.28984037 -0.1862642 -0.2331334 0.057951666
0001c0 a0 4a 3a 39 97 c8 23 bb 67 f8 5a 3d c3 05 64 21
       0.00017766142 -0.0024991387 0.05345955 7.725703e-19
0001d0 fe 19 9c 3d 91 7a 76 be 1d d7 5f be 9b 51 5a be
       0.07622145 -0.24070193 -0.21859403 -0.21320193
0001e0 9c 9f 1e be da 2b 86 be 33 53 e1 bd 30 73 c0 3c
       -0.15490574 -0.2620533 -0.11002197 0.023492426
0001f0 4f a2 46 be
       -0.19397853
